…
    (conv3): Conv2d(128, 256, kernel_size=(5, 3), stride=(1, 1), padding=same)
    (bn3): BatchNorm2d(256, eps=1e-05, momentum=0.1, affine=True, track_running_stats=True)
    (act3): LeakyReLU(negative_slope=0.01)
    (pool3): MaxPool2d(kernel_size=(2, 1), stride=(2, 1), padding=0, dilation=1, ceil_mode=False)
  )
  (fc): Linear(in_features=122880, out_features=2, bias=True)
  (dropout): Dropout(p=0.5, inplace=False)
)
----------------------------------------------------------------
        Layer (type)               Output Shape         Param #
================================================================
            Conv2d-1           [-1, 64, 64, 60]           1,024
       BatchNorm2d-2           [-1, 64, 64, 60]             128
         LeakyReLU-3           [-1, 64, 64, 60]               0
         MaxPool2d-4           [-1, 64, 32, 60]               0
            Conv2d-5          [-1, 128, 32, 60]         123,008
       BatchNorm2d-6          [-1, 128, 32, 60]             256
         LeakyReLU-7          [-1, 128, 32, 60]               0
         MaxPool2d-8          [-1, 128, 16, 60]               0
            Conv2d-9          [-1, 256, 16, 60]         491,776
      BatchNorm2d-10          [-1, 256, 16, 60]             512
        LeakyReLU-11          [-1, 256, 16, 60]               0
        MaxPool2d-12           [-1, 256, 8, 60]               0
          Dropout-13           [-1, 256, 8, 60]               0
           Linear-14                    [-1, 2]         245,762
================================================================
Total params: 862,466
Trainable params: 862,466
Non-trainable params: 0
----------------------------------------------------------------
Input size (MB): 0.01
Forward/backward pass size (MB): 20.63
Params size (MB): 3.29
Estimated Total Size (MB): 23.93
----------------------------------------------------------------
[1/10000] train_loss: 0.8924 train_accuracy: 0.5061; valid_loss: 0.6990  valid_accuracy: 0.5251
…
    (conv3): Conv2d(64, 128, kernel_size=(5, 3), stride=(1, 1), padding=same)
    (bn3): BatchNorm2d(128, eps=1e-05, momentum=0.1, affine=True, track_running_stats=True)
    (act3): LeakyReLU(negative_slope=0.01)
    (pool3): MaxPool2d(kernel_size=(2, 1), stride=(2, 1), padding=0, dilation=1, ceil_mode=False)
  )
  (fc): Linear(in_features=61440, out_features=2, bias=True)
  (dropout): Dropout(p=0.5, inplace=False)
)
----------------------------------------------------------------
        Layer (type)               Output Shape         Param #
================================================================
            Conv2d-1           [-1, 32, 64, 60]             512
       BatchNorm2d-2           [-1, 32, 64, 60]              64
         LeakyReLU-3           [-1, 32, 64, 60]               0
         MaxPool2d-4           [-1, 32, 32, 60]               0
            Conv2d-5           [-1, 64, 32, 60]          30,784
       BatchNorm2d-6           [-1, 64, 32, 60]             128
         LeakyReLU-7           [-1, 64, 32, 60]               0
         MaxPool2d-8           [-1, 64, 16, 60]               0
            Conv2d-9          [-1, 128, 16, 60]         123,008
      BatchNorm2d-10          [-1, 128, 16, 60]             256
        LeakyReLU-11          [-1, 128, 16, 60]               0
        MaxPool2d-12           [-1, 128, 8, 60]               0
          Dropout-13           [-1, 128, 8, 60]               0
           Linear-14                    [-1, 2]         122,882
================================================================
Total params: 277,634
Trainable params: 277,634
Non-trainable params: 0
----------------------------------------------------------------
Input size (MB): 0.01
Forward/backward pass size (MB): 10.31
Params size (MB): 1.06
Estimated Total Size (MB): 11.39
----------------------------------------------------------------
[1/10000] train_loss: 0.8973 train_accuracy: 0.5058; valid_loss: 0.6978  valid_accuracy: 0.5248
…
    (conv3): Conv2d(256, 512, kernel_size=(5, 3), stride=(1, 1), padding=same)
    (bn3): BatchNorm2d(512, eps=1e-05, momentum=0.1, affine=True, track_running_stats=True)
    (act3): LeakyReLU(negative_slope=0.01)
    (pool3): MaxPool2d(kernel_size=(2, 1), stride=(2, 1), padding=0, dilation=1, ceil_mode=False)
  )
  (fc): Linear(in_features=245760, out_features=2, bias=True)
  (dropout): Dropout(p=0.5, inplace=False)
)
----------------------------------------------------------------
        Layer (type)               Output Shape         Param #
================================================================
            Conv2d-1          [-1, 128, 64, 60]           2,048
       BatchNorm2d-2          [-1, 128, 64, 60]             256
         LeakyReLU-3          [-1, 128, 64, 60]               0
         MaxPool2d-4          [-1, 128, 32, 60]               0
            Conv2d-5          [-1, 256, 32, 60]         491,776
       BatchNorm2d-6          [-1, 256, 32, 60]             512
         LeakyReLU-7          [-1, 256, 32, 60]               0
         MaxPool2d-8          [-1, 256, 16, 60]               0
            Conv2d-9          [-1, 512, 16, 60]       1,966,592
      BatchNorm2d-10          [-1, 512, 16, 60]           1,024
        LeakyReLU-11          [-1, 512, 16, 60]               0
        MaxPool2d-12           [-1, 512, 8, 60]               0
          Dropout-13           [-1, 512, 8, 60]               0
           Linear-14                    [-1, 2]         491,522
================================================================
Total params: 2,953,730
Trainable params: 2,953,730
Non-trainable params: 0
----------------------------------------------------------------
Input size (MB): 0.01
Forward/backward pass size (MB): 41.25
Params size (MB): 11.27
Estimated Total Size (MB): 52.53
----------------------------------------------------------------
[1/10000] train_loss: 0.9054 train_accuracy: 0.5073; valid_loss: 0.7206  valid_accuracy: 0.5205
…
    (conv2): Conv2d(64, 128, kernel_size=(5, 3), stride=(1, 1), padding=same)
    (bn2): BatchNorm2d(128, eps=1e-05, momentum=0.1, affine=True, track_running_stats=True)
    (act2): LeakyReLU(negative_slope=0.01)
    (pool2): MaxPool2d(kernel_size=(2, 1), stride=(2, 1), padding=0, dilation=1, ceil_mode=False)
  )
  (fc): Linear(in_features=122880, out_features=2, bias=True)
  (dropout): Dropout(p=0.5, inplace=False)
)
----------------------------------------------------------------
        Layer (type)               Output Shape         Param #
================================================================
            Conv2d-1           [-1, 64, 64, 60]           1,024
       BatchNorm2d-2           [-1, 64, 64, 60]             128
         LeakyReLU-3           [-1, 64, 64, 60]               0
         MaxPool2d-4           [-1, 64, 32, 60]               0
            Conv2d-5          [-1, 128, 32, 60]         123,008
       BatchNorm2d-6          [-1, 128, 32, 60]             256
         LeakyReLU-7          [-1, 128, 32, 60]               0
         MaxPool2d-8          [-1, 128, 16, 60]               0
           Dropout-9          [-1, 128, 16, 60]               0
           Linear-10                    [-1, 2]         245,762
================================================================
Total params: 370,178
Trainable params: 370,178
Non-trainable params: 0
----------------------------------------------------------------
Input size (MB): 0.01
Forward/backward pass size (MB): 14.06
Params size (MB): 1.41
Estimated Total Size (MB): 15.49
----------------------------------------------------------------
[1/10000] train_loss: 0.8739 train_accuracy: 0.5070; valid_loss: 0.6974  valid_accuracy: 0.5249
…
    (conv4): Conv2d(256, 512, kernel_size=(5, 3), stride=(1, 1), padding=same)
    (bn4): BatchNorm2d(512, eps=1e-05, momentum=0.1, affine=True, track_running_stats=True)
    (act4): LeakyReLU(negative_slope=0.01)
    (pool4): MaxPool2d(kernel_size=(2, 1), stride=(2, 1), padding=0, dilation=1, ceil_mode=False)
  )
  (fc): Linear(in_features=122880, out_features=2, bias=True)
  (dropout): Dropout(p=0.5, inplace=False)
)
----------------------------------------------------------------
        Layer (type)               Output Shape         Param #
================================================================
            Conv2d-1           [-1, 64, 64, 60]           1,024
       BatchNorm2d-2           [-1, 64, 64, 60]             128
         LeakyReLU-3           [-1, 64, 64, 60]               0
         MaxPool2d-4           [-1, 64, 32, 60]               0
            Conv2d-5          [-1, 128, 32, 60]         123,008
       BatchNorm2d-6          [-1, 128, 32, 60]             256
         LeakyReLU-7          [-1, 128, 32, 60]               0
         MaxPool2d-8          [-1, 128, 16, 60]               0
            Conv2d-9          [-1, 256, 16, 60]         491,776
      BatchNorm2d-10          [-1, 256, 16, 60]             512
        LeakyReLU-11          [-1, 256, 16, 60]               0
        MaxPool2d-12           [-1, 256, 8, 60]               0
           Conv2d-13           [-1, 512, 8, 60]       1,966,592
      BatchNorm2d-14           [-1, 512, 8, 60]           1,024
        LeakyReLU-15           [-1, 512, 8, 60]               0
        MaxPool2d-16           [-1, 512, 4, 60]               0
          Dropout-17           [-1, 512, 4, 60]               0
           Linear-18                    [-1, 2]         245,762
================================================================
Total params: 2,830,082
Trainable params: 2,830,082
Non-trainable params: 0
----------------------------------------------------------------
Input size (MB): 0.01
Forward/backward pass size (MB): 27.19
Params size (MB): 10.80
Estimated Total Size (MB): 38.00
----------------------------------------------------------------
[1/10000] train_loss: 0.9368 train_accuracy: 0.5065; valid_loss: 0.6988  valid_accuracy: 0.5269
…
    (pool2): MaxPool2d(kernel_size=(2, 1), stride=(2, 1), padding=0, dilation=1, ceil_mode=False)
    (conv3): Conv2d(128, 256, kernel_size=(5, 3), stride=(1, 1), padding=same)
    (act3): LeakyReLU(negative_slope=0.01)
    (pool3): MaxPool2d(kernel_size=(2, 1), stride=(2, 1), padding=0, dilation=1, ceil_mode=False)
  )
  (fc): Linear(in_features=122880, out_features=2, bias=True)
  (dropout): Dropout(p=0.5, inplace=False)
)
----------------------------------------------------------------
        Layer (type)               Output Shape         Param #
================================================================
            Conv2d-1           [-1, 64, 64, 60]           1,024
         LeakyReLU-2           [-1, 64, 64, 60]               0
         MaxPool2d-3           [-1, 64, 32, 60]               0
            Conv2d-4          [-1, 128, 32, 60]         123,008
         LeakyReLU-5          [-1, 128, 32, 60]               0
         MaxPool2d-6          [-1, 128, 16, 60]               0
            Conv2d-7          [-1, 256, 16, 60]         491,776
         LeakyReLU-8          [-1, 256, 16, 60]               0
         MaxPool2d-9           [-1, 256, 8, 60]               0
          Dropout-10           [-1, 256, 8, 60]               0
           Linear-11                    [-1, 2]         245,762
================================================================
Total params: 861,570
Trainable params: 861,570
Non-trainable params: 0
----------------------------------------------------------------
Input size (MB): 0.01
Forward/backward pass size (MB): 15.00
Params size (MB): 3.29
Estimated Total Size (MB): 18.30
----------------------------------------------------------------
[1/10000] train_loss: 0.8914 train_accuracy: 0.5113; valid_loss: 0.6903  valid_accuracy: 0.5297
…
    (conv3): Conv2d(128, 256, kernel_size=(5, 3), stride=(1, 1), padding=same)
    (bn3): BatchNorm2d(256, eps=1e-05, momentum=0.1, affine=True, track_running_stats=True)
    (act3): LeakyReLU(negative_slope=0.01)
    (pool3): MaxPool2d(kernel_size=(2, 2), stride=(2, 2), padding=0, dilation=1, ceil_mode=False)
  )
  (fc): Linear(in_features=14336, out_features=2, bias=True)
  (dropout): Dropout(p=0.5, inplace=False)
)
----------------------------------------------------------------
        Layer (type)               Output Shape         Param #
================================================================
            Conv2d-1           [-1, 64, 64, 60]           1,024
       BatchNorm2d-2           [-1, 64, 64, 60]             128
         LeakyReLU-3           [-1, 64, 64, 60]               0
         MaxPool2d-4           [-1, 64, 32, 30]               0
            Conv2d-5          [-1, 128, 32, 30]         123,008
       BatchNorm2d-6          [-1, 128, 32, 30]             256
         LeakyReLU-7          [-1, 128, 32, 30]               0
         MaxPool2d-8          [-1, 128, 16, 15]               0
            Conv2d-9          [-1, 256, 16, 15]         491,776
      BatchNorm2d-10          [-1, 256, 16, 15]             512
        LeakyReLU-11          [-1, 256, 16, 15]               0
        MaxPool2d-12            [-1, 256, 8, 7]               0
          Dropout-13            [-1, 256, 8, 7]               0
           Linear-14                    [-1, 2]          28,674
================================================================
Total params: 645,378
Trainable params: 645,378
Non-trainable params: 0
----------------------------------------------------------------
Input size (MB): 0.01
Forward/backward pass size (MB): 10.77
Params size (MB): 2.46
Estimated Total Size (MB): 13.24
----------------------------------------------------------------
[1/10000] train_loss: 0.9181 train_accuracy: 0.5045; valid_loss: 0.6932  valid_accuracy: 0.5233
…
    (conv3): Conv2d(128, 256, kernel_size=(3, 3), stride=(1, 1), padding=same)
    (bn3): BatchNorm2d(256, eps=1e-05, momentum=0.1, affine=True, track_running_stats=True)
    (act3): LeakyReLU(negative_slope=0.01)
    (pool3): MaxPool2d(kernel_size=(2, 1), stride=(2, 1), padding=0, dilation=1, ceil_mode=False)
  )
  (fc): Linear(in_features=122880, out_features=2, bias=True)
  (dropout): Dropout(p=0.5, inplace=False)
)
----------------------------------------------------------------
        Layer (type)               Output Shape         Param #
================================================================
            Conv2d-1           [-1, 64, 64, 60]             640
       BatchNorm2d-2           [-1, 64, 64, 60]             128
         LeakyReLU-3           [-1, 64, 64, 60]               0
         MaxPool2d-4           [-1, 64, 32, 60]               0
            Conv2d-5          [-1, 128, 32, 60]          73,856
       BatchNorm2d-6          [-1, 128, 32, 60]             256
         LeakyReLU-7          [-1, 128, 32, 60]               0
         MaxPool2d-8          [-1, 128, 16, 60]               0
            Conv2d-9          [-1, 256, 16, 60]         295,168
      BatchNorm2d-10          [-1, 256, 16, 60]             512
        LeakyReLU-11          [-1, 256, 16, 60]               0
        MaxPool2d-12           [-1, 256, 8, 60]               0
          Dropout-13           [-1, 256, 8, 60]               0
           Linear-14                    [-1, 2]         245,762
================================================================
Total params: 616,322
Trainable params: 616,322
Non-trainable params: 0
----------------------------------------------------------------
Input size (MB): 0.01
Forward/backward pass size (MB): 20.63
Params size (MB): 2.35
Estimated Total Size (MB): 22.99
----------------------------------------------------------------
[1/10000] train_loss: 0.8974 train_accuracy: 0.5074; valid_loss: 0.7130  valid_accuracy: 0.5194
…
    (conv3): Conv2d(128, 256, kernel_size=(7, 3), stride=(1, 1), padding=same)
    (bn3): BatchNorm2d(256, eps=1e-05, momentum=0.1, affine=True, track_running_stats=True)
    (act3): LeakyReLU(negative_slope=0.01)
    (pool3): MaxPool2d(kernel_size=(2, 1), stride=(2, 1), padding=0, dilation=1, ceil_mode=False)
  )
  (fc): Linear(in_features=122880, out_features=2, bias=True)
  (dropout): Dropout(p=0.5, inplace=False)
)
----------------------------------------------------------------
        Layer (type)               Output Shape         Param #
================================================================
            Conv2d-1           [-1, 64, 64, 60]           1,408
       BatchNorm2d-2           [-1, 64, 64, 60]             128
         LeakyReLU-3           [-1, 64, 64, 60]               0
         MaxPool2d-4           [-1, 64, 32, 60]               0
            Conv2d-5          [-1, 128, 32, 60]         172,160
       BatchNorm2d-6          [-1, 128, 32, 60]             256
         LeakyReLU-7          [-1, 128, 32, 60]               0
         MaxPool2d-8          [-1, 128, 16, 60]               0
            Conv2d-9          [-1, 256, 16, 60]         688,384
      BatchNorm2d-10          [-1, 256, 16, 60]             512
        LeakyReLU-11          [-1, 256, 16, 60]               0
        MaxPool2d-12           [-1, 256, 8, 60]               0
          Dropout-13           [-1, 256, 8, 60]               0
           Linear-14                    [-1, 2]         245,762
================================================================
Total params: 1,108,610
Trainable params: 1,108,610
Non-trainable params: 0
----------------------------------------------------------------
Input size (MB): 0.01
Forward/backward pass size (MB): 20.63
Params size (MB): 4.23
Estimated Total Size (MB): 24.87
----------------------------------------------------------------
[1/10000] train_loss: 0.9055 train_accuracy: 0.5062; valid_loss: 0.7026  valid_accuracy: 0.5227
…
    (conv3): Conv2d(128, 256, kernel_size=(5, 3), stride=(1, 1), padding=same)
    (bn3): BatchNorm2d(256, eps=1e-05, momentum=0.1, affine=True, track_running_stats=True)
    (act3): LeakyReLU(negative_slope=0.01)
    (pool3): MaxPool2d(kernel_size=(2, 1), stride=(2, 1), padding=0, dilation=1, ceil_mode=False)
  )
  (fc): Linear(in_features=122880, out_features=1, bias=True)
  (dropout): Dropout(p=0.5, inplace=False)
)
----------------------------------------------------------------
        Layer (type)               Output Shape         Param #
================================================================
            Conv2d-1           [-1, 64, 64, 60]           1,024
       BatchNorm2d-2           [-1, 64, 64, 60]             128
         LeakyReLU-3           [-1, 64, 64, 60]               0
         MaxPool2d-4           [-1, 64, 32, 60]               0
            Conv2d-5          [-1, 128, 32, 60]         123,008
       BatchNorm2d-6          [-1, 128, 32, 60]             256
         LeakyReLU-7          [-1, 128, 32, 60]               0
         MaxPool2d-8          [-1, 128, 16, 60]               0
            Conv2d-9          [-1, 256, 16, 60]         491,776
      BatchNorm2d-10          [-1, 256, 16, 60]             512
        LeakyReLU-11          [-1, 256, 16, 60]               0
        MaxPool2d-12           [-1, 256, 8, 60]               0
          Dropout-13           [-1, 256, 8, 60]               0
           Linear-14                    [-1, 1]         122,881
================================================================
Total params: 739,585
Trainable params: 739,585
Non-trainable params: 0
----------------------------------------------------------------
Input size (MB): 0.01
Forward/backward pass size (MB): 20.63
Params size (MB): 2.82
Estimated Total Size (MB): 23.46
----------------------------------------------------------------
[1/10000] train_loss: 0.8645 train_accuracy: 0.0006; valid_loss: 0.0644  valid_accuracy: 0.0006
…
